going_modular/models/05_going_modular_script_mode_tinyvgg_model.pth (torch, 35783 bytes, 10 tensors)

conv_block_1.0.weight f4 [10, 3, 3, 3]
00000000: c3ff f63c 4c77 3d3e ad24 963d da20 ff3d
00000010: a5fb 2a3e 411c ef3d 361d 0c3d dbdc 8c3d
00000020: d670 8ebc 81de 1e3d 2f00 debd dd3e 2dbe
00000030: 1900 06be d048 203d 7928 363d 7656 643b
00000040: 2787 37be 97b2 85bc 52b5 473d 1127 5d3d
00000050: ff95 a43c 7905 b6bd 3770 3abd 1386 0d3e
00000060: a9f2 383e 83f9 7f3d a0f7 2a3e 89e9 69bd
00000070: 0c99 a93c 1666 343d 137f 883d 5f4f 9c3c
00000080: abb9 083e 8039 00be 1619 d3bc 9740 d5bd
00000090: 8911 973c 9086 6ebd 4d94 353e 35fd 803c
000000a0: 79c6 2f3e 87fc 8d3d f61b 1fbe 91c5 2e3e
000000b0: d53f ffbd e2c1 c43d 1980 393e ac4a c23d
000000c0: 593b 063e 2a3e ffbd 906f 0cbe f9d3 413e
000000d0: 6769 7bbd 76f3 1dbd 26f9 87bd 7804 ecbc
000000e0: f52c 2f3e aa42 1cbe 6091 733c 0ccd 663d
000000f0: 1dc9 9abd c8e5 063d b4f1 15bd d2ed a93d
00000100: ba5b 41be 5897 85bc fce0 423d 2e1d a53d
00000110: 96ce cb3d 40f2 e7bc a03a 49bc e82e 0ebd
00000120: fa1b 3dbe 304f 9d3c d407 663d b0fb eebc
00000130: 6032 01bd cad1 e2bd dc1f 533d b083 d7bc
00000140: 1ce3 0cbe 5cad 44bd cafa 3e3e 529d c53d
00000150: fc1d 8fbd 0fc7 1ebe 0265 1fbd 559f c8bd
00000160: c9f7 6abd 0365 1cbc 4919 eabd fdc9 203d
00000170: 2253 30bd 6f2c 373e 5313 acbd e83e 35be
00000180: 7555 923d 7d83 183e 24b2 50bd 3fdd 823d
00000190: 701c 2b3e 1874 ecbc 420b 4e3d 68c5 103e
000001a0: ac27 893d 06f5 033e b61b 0abb 0169 0d3e
000001b0: b55c c9bb 29e7 343e c672 e6bd 4e7a 133e
000001c0: aaee bc3d 9294 21be 4782 fcbd 3f41 163d
000001d0: d191 2a3e 7cca 35be 20d3 7c3c 67e1 f13d
000001e0: 71d9 f2bd d030 79bd 81ee 033e 2a40 643d
000001f0: 6ca4 db3d dff0 bd3d 7f33 a2bd f5bb 5dbd
00000200: 5a2d 77bd dc7d 29bd a5ed eb3d 7db9 493d
00000210: 5c2e 9cbd d0e7 e8bd 9778 153e f744 cbbd
00000220: efdf 063d ec07 153e 4b67 ad3c b2f6 62bd
00000230: eb12 283d dc12 8e3b 30e0 24be b538 90bd
00000240: f712 46bd 47cf 9f3d 47ac 37be d16a 03be
00000250: 1ce6 cd3d 5d34 1bbd 7322 ccbd 5a86 143e
00000260: 2013 e33d da9b f4bd ed6b 033e 4b6a df3d
00000270: b6e8 1e3e 8e31 073d 528e 8bbc 45a8 ae3d
00000280: eaf5 3bbc ab8c 48be e4af 3e3e cb0f 46bd
00000290: 341a f13d a8f8 e2bd a0c6 74bd bbb2 04be
000002a0: 290c 07bd a44b be3d d42c 1d3e 6b75 e73d
000002b0: c93b 2c3e 94d2 113d 9142 303d 2ac5 103e
000002c0: 7c86 04be 8132 8b3d dc73 853c b1cb 773d
000002d0: e9dc 923d b5fc 46bc 5270 c5bc 5c7f 133e
000002e0: f8bf 61bb eb1a d63d b2a2 093e 4d2c 433e
000002f0: b5a8 bc3d c7d8 883d c12e 083e 3f44 323e
00000300: b123 cd3b a660 dbbd 82d6 f53c dcdd b2bc
00000310: 3997 1dbe 7c57 30be 6d42 9f3d ed8a 1e3e
00000320: ff49 10be b351 c2bd 3247 0dbe 5c94 523d
00000330: 7d31 1fbd 7f99 c3bd fe0e ef3d 828a 86bd
00000340: a519 103e 0cb6 0abd e02f 0ebd cf11 0d3c
00000350: 3a3e 15be 2b2f ed3c edef 3abe c8de 503d
00000360: 9195 3fbe 90db 323d 6b1e 85bc b4a4 e13d
00000370: 38d8 bf3d 5ba6 06bd 371b 0bbe a3f8 3c3e
00000380: 38c1 17be 10a8 d1bd f04a 6bbd be87 efbd
00000390: 8ac3 cf3d 5dd0 f13d bc07 763d f91b 883d
000003a0: 0afc 293e ed11 14be 3e73 68bc 6c07 1fbe
000003b0: eea3 0e3e 29ef 383b 5cdc 0d3d 5225 febc
000003c0: 5f2a 823d f965 12be 36ea 30bd 55fc 053e
000003d0: ce0b c43d 3729 4f3e 2a77 31bd ba4a 1c3e
000003e0: 702a c53d 199d 06bd 1c1d 8e3c d859 1bbe
000003f0: 0b61 c4bd 28c8 32be 5813 503e 5340 323e
0.030151254 0.1850254 0.07331214 0.12457438 0.16697557 0.11675311 0.034207545 0.06878062
-0.017387789 0.038786415 -0.10839879 -0.16918512 -0.13085975 0.03913194 0.04447219 0.0034841574
-0.1792265 -0.01632051 0.048756905 0.053992335 0.020091055 -0.088877626 -0.045517173 0.13820677
0.18061318 0.062493812 0.16696024 -0.057107482 0.020702861 0.04404267 0.066648625 0.019080816
0.13352077 -0.12521935 -0.025768798 -0.1041271 0.018440979 -0.058233798 0.17732354 0.015745739
0.17165555 0.069329314 -0.1553801 0.17067553 -0.12463347 0.09607293 0.18115272 0.09486899
0.13108577 -0.12463029 -0.13714433 0.18928517 -0.061379816 -0.03856226 -0.06639318 -0.028810725
0.17106993 -0.15259805 0.014866203 0.05634789 -0.075578906 0.03293398 -0.03660746 0.08297314
-0.18882647 -0.016307518 0.047577843 0.08062206 0.099515125 -0.028313756 -0.012282044 -0.034712702
-0.18467703 0.019202799 0.05615981 -0.029172748 -0.031542182 -0.1107517 0.051544055 -0.02630791
-0.1375851 -0.04801689 0.18650356 0.09649147 -0.06988141 -0.15505622 -0.038914688 -0.09796015
-0.057365213 -0.009545567 -0.11430604 0.03925513 -0.04304803 0.17888044 -0.08402123 -0.17699778
0.07145206 0.14893909 -0.05095114 0.063898556 0.16710067 -0.028863952 0.050303705 0.14137805
0.0669702 0.12886438 -0.0021073646 0.13809587 -0.0061450847 0.17666306 -0.1125236 0.14402124
0.09225209 -0.15779331 -0.12329536 0.036683317 0.16657187 -0.17753023 0.0154311955 0.1181057
-0.1185788 -0.060837567 0.12883951 0.055725254 0.1072472 0.09274458 -0.07919978 -0.054134328
-0.060345985 -0.041379794 0.115199365 0.04924916 -0.0762603 -0.1137234 0.14596783 -0.099252634
0.032928403 0.14553803 0.021167418 -0.05541105 0.041033667 0.0043357443 -0.16101146 -0.07042066
-0.04835793 0.07803207 -0.17936812 -0.12833716 0.100536555 -0.037891734 -0.09967508 0.14504376
0.11087632 -0.11943789 0.12834139 0.10908946 0.1551846 0.033006243 -0.017035637 0.085281886
-0.011472205 -0.1958491 0.18621784 -0.048354905 0.11772576 -0.11082584 -0.059759736 -0.12958805
-0.03297058 0.09291771 0.15349132 0.113016926 0.16819681 0.035601214 0.043032233 0.14137712
-0.12941927 0.06796742 0.016290598 0.06049699 0.071710415 -0.012145211 -0.02410141 0.14404052
-0.0034446698 0.10454353 0.1344097 0.19059868 0.09211866 0.06681972 0.13299085 0.17408846
0.0062603583 -0.107117936 0.030009512 -0.021834306 -0.15389718 -0.17220873 0.077763416 0.15482683
-0.14090727 -0.09488239 -0.1379669 0.051411018 -0.038865555 -0.095507614 0.116727814 -0.06569387
0.14072283 -0.03386502 -0.034713626 0.008610203 -0.14574519 0.028953156 -0.18255587 0.05099371
-0.18709399 0.043666422 -0.016249856 0.11017743 0.09367412 -0.032873493 -0.135846 0.18454222
-0.14819801 -0.102371335 -0.057444513 -0.11695813 0.10144718 0.1180732 0.06006597 0.0664596
0.16600052 -0.14459963 -0.014187632 -0.15530175 0.13929722 0.0028218722 0.03463398 -0.031023655
0.06355738 -0.14296712 -0.04319211 0.13084538 0.09572564 0.20230566 -0.043326534 0.15262881
0.09627235 -0.032864664 0.017347865 -0.15170991 -0.09588822 -0.17459166 0.20319879 0.1740735

conv_block_1.0.bias f4 [10]
00000000: 3046 e93d fba0 fe3d c15b 36be ff51 183c
00000010: aeaa 093e 9c2b afbd 980a 203e 15b6 313c
00000020: 8346 ed3d 5a9f 39bc
0.1139034 0.12433048 -0.17808439 0.009296893 0.13444015 -0.0855324 0.15629041 0.010846634
0.11585715 -0.011329496

conv_block_1.2.weight f4 [10, 10, 3, 3]
00000000: 7103 45bd 45d9 003d bd93 dfbc dadf 60bd
00000010: b29d cabd 22b8 56bd ab03 913c 1bfe 5b3c
00000020: b067 793d 2983 5cbd 3338 e9bb 38a9 903d
00000030: 2f61 04bb 5a63 7d3b d21b ab3c e725 ce3d
00000040: a4d0 983d 1b7e 923d 4df2 c33d e0b6 2bbc
00000050: 4333 d3bd e557 993d dc00 2ebd b8f3 a1bd
00000060: b04a 0dbd e438 c43c 674a 9cbd cd10 ba3d
00000070: 5b3d 05bd 1c77 b63d 73b8 9d3b 278f 95bb
00000080: 778a 103b 73de 87bd 9b58 88bd 776f bfbd
00000090: ca4a 933d 78bf 71bc b2ba ae3d 42ef 463d
000000a0: 5677 893b 8d1c cfbd 98aa 51bc 2636 22bd
000000b0: e231 fa3c 490e bb3c 6048 02bd 6d83 12bd
000000c0: b9a6 c9bd 8d0e 53bd c7cf d53d 7310 b93d
000000d0: 796f 53bd 1345 c43d e987 9cbd 9775 5d3d
000000e0: e8ba 44bc c49e 653c ed91 7bbc ddaa 96bc
000000f0: 7ec4 813d 0821 70bd 7647 c7bd 7e02 973d
00000100: b393 1b3d 73c9 2a3d 45d3 4abd f3ee 5e3d
00000110: 5aef 78bd 3901 b53c 85ba ffbb eeb0 b5bc
00000120: 01be b7bb 5390 8b3d 0cc1 b3bd 41fb 60bd
00000130: b42e 063d 164f adbd d8dc 76bc 2cbf 2d3d
00000140: 348c 91bd 8207 75bd 01e5 4f3b 2de8 9ebd
00000150: d991 8c3d fca1 993d 684b 23bd 4fcf 563d
00000160: 329a a0bd a07a 043d ce96 7a3d 1969 913d
00000170: e10d d63d 44c8 8e3d 493d 3d3d e164 04bd
00000180: 9fdc cc3d 5310 203d 1de4 d23d b711 00bd
00000190: 6242 be3d 007e b8bd 310b abbd 6cdc c23d
000001a0: c3ab 1f3c f3ab 683d 5dfa 943d 54a8 2dbd
000001b0: 4625 773d ee3a 09bd d010 6bbc 08d3 26bc
000001c0: 0249 17bd 8634 3e3d 6611 01bd 8c80 88bd
000001d0: 37b7 bd3d 3b08 7abd e995 39bd 0b6a a0bd
000001e0: 5c7e a33d 5472 ce3d ce26 13bd fdc0 693d
000001f0: 410f 69bb 641b 2f3d 29e6 e1bd 2886 2f3d
00000200: 058c fdbc d8c5 223d 37c2 7abc 628b 15bd
00000210: f9bd bf3d e30d 093d 7271 163d 9e4e b1bd
00000220: 439e 8bbd f0e3 8bbc 45cf 6abd 1e24 d43d
00000230: e9de a1bc 0a54 813d 87c6 92bd b5e7 a8bd
00000240: 258d a63d 17e8 82bd e4a7 8abd 5b3b 813d
00000250: 29ab 4a3d 382e afbd 0f37 84bd 371a 963c
00000260: 9814 4b3c 5ff1 66bb 83bd c0bd 84b1 413d
00000270: 5a5f 1abd 5967 72bd 54f4 78bd 4a46 7b3d
00000280: 4d34 b73d dffe 85bd e027 0f3c fee9 dfbd
00000290: 4321 1abc 078c cfbc f79e 66bb 961f 84bd
000002a0: b216 cabd fda5 fcbc b382 d3bd 8775 0bbc
000002b0: 9be4 2e3d 7a45 963d cde0 36bd 3c9f 8e3d
000002c0: e8f6 bd3d bcf5 5bbd 7d65 623d 747e 423d
000002d0: 87cf 9c3d e037 2bbd 5a7f a1bd cd03 43bd
000002e0: 680c c03c 006c dcbd 8cd1 a5bd 4f07 393d
000002f0: a238 d4bd caa8 4e3d 3492 d3bd 404e 213c
00000300: cb40 b6bd 4f98 cdbd 10ad ec3c 7dc9 d2bd
00000310: 3ca1 c23d 2f65 82bd 3283 563d 0c28 afbc
00000320: b32b 993d d6f6 60bd f9b6 77bd 6bd1 d33d
00000330: 05b9 b03d a03c 293b 36f3 22bd d2b2 77bd
00000340: 9931 b43d cb11 29bd 8c98 d8bc a770 373d
00000350: d406 babc 098f f0bc ac6e a23d 36d5 9a3d
00000360: 6d3f c4bd 6b46 d2bd 051b 3f3c 35c5 bbbd
00000370: c4f7 583c 1a7d a5bd c747 37bd b79c c13c
00000380: 8b16 d83d 6b14 d5bd cc46 99bd e968 4cbd
00000390: 486d 70bd 3da0 a3bd 3678 c9bd 1e40 91bc
000003a0: 4a68 0ebd 5f5c 8c3d 46de b93d d178 d4bd
000003b0: 389e 8e3d e367 833d 9d97 4ebd f229 a93d
000003c0: 816f 4b3d 2bd4 2b3b a169 90bd 2793 52bd
000003d0: c48f ccbd d284 c1bd 90cd b2bb b68c bfbd
000003e0: 45c1 433d f299 cfbd 7923 d3bd 971f b93d
000003f0: 545b d3bd 28f4 5a3d a84f a3bd f356 cb3d
-0.048098985 0.031457204 -0.027292127 -0.05490098 -0.09893359 -0.052421696 0.017701944 0.013427283
0.0608899 -0.05383602 -0.007117295 0.07063526 -0.0020199527 0.0038663954 0.02088729 0.10065823
0.0746167 0.07152959 0.095676996 -0.0104806125 -0.10312512 0.07487468 -0.04248129 -0.07907814
-0.034495056 0.023952909 -0.076313786 0.09085236 -0.032529216 0.08909437 0.004813248 -0.004564184
0.0022055188 -0.06634226 -0.06657525 -0.09347432 0.07191999 -0.014755122 0.08531703 0.048568018
0.004195134 -0.101128675 -0.01279702 -0.03960242 0.030541364 0.02283396 -0.031807303 -0.03576987
-0.09846253 -0.05152755 0.10440021 0.090363406 -0.05161998 0.09583487 -0.0764311 0.05406722
-0.012007453 0.014014903 -0.015354616 -0.01839202 0.06336306 -0.05862525 -0.09730427 0.07373522
0.037982654 0.041696023 -0.04951789 0.0544271 -0.06077514 0.02209531 -0.0078042173 -0.022179093
-0.005607367 0.06814637 -0.08777055 -0.054927114 0.032759383 -0.0846235 -0.015067302 0.042418644
-0.0710682 -0.059821613 0.003172219 -0.07759128 0.06863756 0.07501599 -0.039866835 0.0524438
-0.078419104 0.032343507 0.061178975 0.07100124 0.10451866 0.069717914 0.046201024 -0.032322768
0.10003018 0.039078068 0.102974154 -0.031266894 0.09290005 -0.090084076 -0.08351744 0.095146984
0.009745541 0.05680461 0.072743155 -0.04239686 0.06033828 -0.033503465 -0.01434727 -0.01018215
-0.03693486 0.04643681 -0.031510733 -0.06665143 0.09263461 -0.061043005 -0.04530898 -0.07832726
0.079830855 0.100804 -0.03592568 0.057068814 -0.003556207 0.04275073 -0.11030228 0.04285255
-0.030950556 0.03973946 -0.0153050935 -0.03650988 0.09362406 0.03346051 0.036729284 -0.08657573
-0.068172954 -0.017076463 -0.057326574 0.10358451 -0.019759612 0.06314857 -0.07166772 -0.082473196
0.0813239 -0.06391924 -0.06770304 0.06310149 0.049479637 -0.085537374 -0.06455814 0.018323047
0.012395047 -0.0035239083 -0.094111465 0.047288433 -0.03768859 -0.05918059 -0.060779884 0.06134633
0.089455225 -0.065427534 0.008737534 -0.10933302 -0.009407344 -0.025335325 -0.0035189965 -0.06451337
-0.0986761 -0.030840868 -0.10327663 -0.008511907 0.042698484 0.0733747 -0.04464798 0.06963965
0.09275609 -0.053701147 0.055272568 0.047483876 0.0765677 -0.041801333 -0.078856185 -0.047611047
0.023443416 -0.10762787 -0.080966085 0.045172986 -0.10362364 0.05045394 -0.103306204 0.009845316
-0.08899077 -0.10038816 0.028891116 -0.10292337 0.09503409 -0.063669555 0.05237121 -0.0213814
0.07479038 -0.0549229 -0.06047723 0.10342678 0.0862904 0.0025823489 -0.039782725 -0.06047327
0.087985225 -0.041276734 -0.026439928 0.044785168 -0.022708334 -0.02936508 0.07931265 0.07560198
-0.0958241 -0.102673374 0.011664157 -0.09168474 0.013242666 -0.08080502 -0.044746187 0.023634298
0.10551175 -0.10404285 -0.074842066 -0.049904738 -0.05869797 -0.079895474 -0.098373815 -0.017730769
-0.034767427 0.06853556 0.090755984 -0.103746064 0.069637716 0.06416299 -0.05043756 0.082599536
0.049666885 0.0026218991 -0.07051397 -0.051409867 -0.099883586 -0.094491616 -0.005456634 -0.0935301
0.047791738 -0.101367846 -0.103095 0.090392284 -0.10320154 0.0534555 -0.079741776 0.099286936

conv_block_1.2.bias f4 [10]
00000000: 6de6 00bb 47aa b83d 4732 27bd 6c62 c2bc
00000010: 0da7 b7bd 7502 da3d 05f2 a4bd 3eb0 8fbd
00000020: 9fb5 f03c 4ef9 7c3d
-0.0019668594 0.09016853 -0.040819433 -0.023728572 -0.08967409 0.10645 -0.08053974 -0.070160374
0.029383479 0.061761193

conv_block_2.0.weight f4 [10, 10, 3, 3]
00000000: d135 a6bd 3812 74bd cee1 05bd b099 1abd
00000010: f61e b9bd babf 533d 367c 013d b44d a83c
00000020: 0891 8dbd 1d1a b03d 52fa 31bd 4fb9 8a3d
00000030: 081b a3bd cc37 a8bd a857 94bc 4055 153b
00000040: d90e 823d 4aaa 623d a01d febb a628 c2bd
00000050: a8c1 1dbc ceb7 493d 5e3d 153d f8af 9abc
00000060: cdf1 cb3d da41 693d 409f da3b 8474 85bc
00000070: 709e 853b 583d cdbd 5fea b2bd b663 44bd
00000080: dc02 6ebd 0ebc 9abd bec8 433d 1c3c b13c
00000090: dd1b bb3d 9119 c4bd 407d 62bc b2bf 27bd
000000a0: 18e7 0dbc f261 26bd 5a82 623d a4d5 acbd
000000b0: 828b 503d fa9b 06bd 470d a83d 40cb 91ba
000000c0: 7e13 04bd eed9 85bd ade1 bcbd 3ae9 95bd
000000d0: 3201 d7bd f13b 6bbd f8da 833c d577 c93d
000000e0: d6f1 a2bd d436 b03c 6a31 1c3d 574d c83d
000000f0: 8425 69bd 00b0 b0b9 c999 953d e0a9 f3bc
00000100: f00e 03bc aa10 2a3d 583d 5cbd b4c2 af3c
00000110: 6b50 b9bd 98a9 423c 3c0e e53c d8fc 1ebd
00000120: a2f1 06bd ee68 1dbd d6cb 163d 0eb9 39bd
00000130: 5245 b6bd 21cd bbbd 647d af3c b36f 813d
00000140: 781f 3e3c 807b 06ba ccff b9bd d643 12bd
00000150: 0da8 a2bd 004a 98b9 a2fe 573d a888 5a3c
00000160: fc39 e23c 5e24 5e3d 35f0 ef3c 6f8c 58bc
00000170: 8035 ad3a b885 a43d 1963 db3d e9a4 afbd
00000180: 796b 923d 6412 bb3d 29d5 c33d 4f59 cebd
00000190: fe3d bebd 1e3a 93bd 482f 80bd 9a85 a43d
000001a0: 12c3 893c 48bb 2abd 7a1f c2bd 655b 06bc
000001b0: 4f9e 8b3d 9848 10bd 46e0 863d 54b4 cebd
000001c0: 9cb3 43bd ae91 6dbd a90d b13d 8c40 b5bc
000001d0: 98df 1dbc 5400 ffbc 764f 17bd 7768 a73d
000001e0: 47a4 903d e9a2 a5bd 40fa 8f3b 5164 ba3d
000001f0: 1de5 c0bd ca75 543d 330b 36bd 4689 3abd
00000200: a9ef ac3d 0ab4 7fbd 8a01 023d d20b 8d3c
00000210: a855 413b 36ea 94bd 671e 7fbc 52a0 d03d
00000220: 858e 763d 0136 04bd 70e2 943d f556 c4bd
00000230: 6a59 ba3d 2c3b bc3d 12b1 713d dc60 cbbc
00000240: 572b e83c 39fd 93bd a4af dbbd 2740 81bc
00000250: 101b 243d 5d54 debd add0 babd 40ff 48bc
00000260: 5e19 d2bd 9809 2bbd bf1a 643d c7d0 7e3d
00000270: 6f3d d23d 6c19 993c ed09 9cbd 186d 4cbd
00000280: 0b69 dd3d 5536 f13c 477c 89bd cb49 853c
00000290: 0bc7 c13d 449c 333d 8f62 873c b24e 2b3a
000002a0: 3e4c d8bd affe 66bd 8b4f 833d 1a78 a33d
000002b0: c59f 2ebd eea4 b83d 6f38 83bd 0ea1 413a
000002c0: 1f3d d7bc 9a38 1cbd 55de b53d f004 babd
000002d0: fb46 1fbc 901b 7e3a 8851 ff3c ac2e cfbd
000002e0: cc03 b1bd faa4 bcbd 4133 d53b 3e38 bf3d
000002f0: 3f46 693d f170 903d ab6b b7bd 8fc0 d4bd
00000300: de49 bd3d 39dd 37bd fcca 6bbd 637b bebc
00000310: e3f9 503d 9d06 8fbd 587a 603c 0ce3 f9bc
00000320: f821 34bd f4ac 00bd 4ac5 703d 142a abbc
00000330: e255 ab3d 29d0 0dbc c02e 46bd 7311 a53d
00000340: ac8c db3c ac7f a2bd fd54 833d 75a9 973d
00000350: 2614 043d f1d6 c7bd 39c6 bdbd 001d 033c
00000360: 2650 75bd 89fd d8bc 7759 133d e18e 52bd
00000370: 47c5 b63d b701 86bd 357b 10bc be3f 123d
00000380: a78a 9dbd 4fec b9bd 2064 cebd e969 73bc
00000390: a0d4 dc3b 8278 a1bd 3409 f43a 3805 203c
000003a0: fa95 bb3d 3887 1fbd f675 333a 2e24 14bc
000003b0: e440 c6bd 78ff efbc 5223 113d 44da 1dbd
000003c0: b82d 0bbb 3be4 603d 85e6 47bd a28d 513c
000003d0: e068 b0bd 6b45 c23c 7551 f4bc aa59 74bd
000003e0: c6d6 48bd 1709 8f3b 06fc 8abd 6e5f 693d
000003f0: 5b6c 813d 45bd 293d 7e38 d73d d4f7 8fbd
-0.081157334 -0.059587687 -0.032686047 -0.037744224 -0.090391085 0.051696517 0.031612597 0.020544864
-0.06912428 0.08598731 -0.043451615 0.06773626 -0.0796414 -0.082137674 -0.018108204 0.0022786409
0.06350488 0.05533818 -0.0077549964 -0.09480409 -0.009628691 0.049247555 0.036435477 -0.018882737
0.09958229 0.056947567 0.006671816 -0.01629091 0.004077725 -0.10021466 -0.08736109 -0.047946654
-0.058108196 -0.075554 0.047798865 0.021635108 0.09136174 -0.09575189 -0.013823807 -0.0409543
-0.008661054 -0.04062075 0.055300094 -0.08439186 0.050914295 -0.032863595 0.082056575 -0.0011123195
-0.03224515 -0.065357074 -0.09222732 -0.07319875 -0.10498275 -0.05743021 0.016095623 0.09837309
-0.07956283 0.02151052 0.038133062 0.097803764 -0.056920543 -0.00033700466 0.07304723 -0.029744089
-0.007999167 0.0415198 -0.05376944 0.021455146 -0.09048542 0.011881255 0.027960889 -0.03881535
-0.032945283 -0.038430147 0.036815487 -0.045342498 -0.088999406 -0.091699846 0.021422096 0.06320133
0.011604182 -0.0005130097 -0.090819925 -0.035709225 -0.079422094 -0.00029046834 0.05273307 0.013338245
0.02761554 0.0542339 0.029289344 -0.013217076 0.0013214797 0.08033317 0.10712261 -0.08576376
0.07149405 0.09134367 0.095621414 -0.10075628 -0.09289168 -0.07188819 -0.06259018 0.08033295
0.01681665 -0.04168251 -0.0947866 -0.008200501 0.06817304 -0.03522548 0.065857455 -0.100929886
-0.04777871 -0.05800026 0.086451836 -0.022125505 -0.009635828 -0.031128086 -0.036941014 0.08174222
0.070625834 -0.08087713 0.004393846 0.09101165 -0.094187 0.051870145 -0.044444274 -0.04554107
0.08444149 -0.062427558 0.03173975 0.01721755 0.0029500518 -0.07271235 -0.015571213 0.10186829
0.06019451 -0.032278065 0.07269752 -0.09586898 0.09099086 0.09190974 0.059006758 -0.02482646
0.028340979 -0.07226033 -0.1072686 -0.01577766 0.04006487 -0.10855935 -0.09121833 -0.012267888
-0.10258745 -0.041757196 0.05568957 0.062210824 0.10265624 0.01868888 -0.07619081 -0.049908727
0.10811051 0.029444853 -0.06713157 0.016270539 0.094617926 0.0438502 0.016526489 0.0006534859
-0.10561417 -0.05639523 0.06411656 0.07981892 -0.042632837 0.09015833 -0.06407248 0.0007386365
-0.026274262 -0.038139917 0.08880297 -0.09082973 -0.009721513 0.0009693438 0.031166807 -0.10116324
-0.08643302 -0.09211154 0.006506354 0.09336899 0.056951758 0.07052792 -0.08956083 -0.1038829
0.09242605 -0.04488871 -0.057566628 -0.023252195 0.05101956 -0.06983683 0.013701044 -0.030503772
-0.043977708 -0.03141494 0.0587819 -0.020894088 0.0836599 -0.008655586 -0.048384428 0.08059969
0.026800476 -0.07934508 0.064126946 0.07405368 0.032245778 -0.09757794 -0.092663236 0.00800252
-0.05989089 -0.026488082 0.035973992 -0.05140579 0.089243464 -0.06543296 -0.008818437 0.03570532
-0.076924615 -0.090782754 -0.10077691 -0.014856794 0.006739214 -0.07884313 0.0018618465 0.009766869
0.09159465 -0.038947314 0.00068458857 -0.009041829 -0.09680346 -0.029296622 0.035434075 -0.038538232
-0.0021236967 0.054905158 -0.048803825 0.012790116 -0.08613753 0.023714742 -0.029823998 -0.059655823
-0.04903295 0.0043650973 -0.06786351 0.056975774 0.06319495 0.041440267 0.10508822 -0.07029691

conv_block_2.0.bias f4 [10]
00000000: 1cef efbc 1675 9abb cf70 033d 6d97 14bd
00000010: 082d c1bc 7423 35bc cc91 82bc f3a4 ba3d
00000020: 4412 3c3d ec1e bdba
-0.02928882 -0.0047136648 0.032090005 -0.036277223 -0.023581043 -0.011055816 -0.015938662 0.09113493
0.045915857 -0.0014428771

conv_block_2.2.weight f4 [10, 10, 3, 3]
00000000: 2257 033d 064c 8fbd 64b7 fbbc b443 bcbd
00000010: 0fbb 77bd 0650 21bd a2c9 d7bd 7bf5 9c3d
00000020: 0d1d 943d 93d8 ae3d b019 ed3b 0849 2f3c
00000030: 9847 883c a751 ca3d d42e aabc 9176 8c3d
00000040: 560f c3bd 0540 a93d 522d 27bd 2a89 14bd
00000050: 4a07 80bd fc3c f9bc 0d74 babd c98b ab3d
00000060: d2b3 21bd c10b 33bd 3dce c43d 2c14 1abd
00000070: 26cb 99bd 80f5 08bd 8ab6 0b3d 3ae5 5a3d
00000080: 402a 70bb 802c f5ba 1bb7 a83d 0c39 fb3c
00000090: 7a21 80bd cec1 4c3d 8926 41bd b3b1 64bd
000000a0: b4e3 b8bc c430 d2bd 0a25 94bd 006c 35b9
000000b0: 36b4 063d fd90 ca3d 4ed1 783d 8b7f c4bd
000000c0: 9c42 ddbc 2808 04bc cb1e d73d 7d74 983d
000000d0: fbe3 ca3d 6213 a0bd 6fa3 78bd 3e66 3b3d
000000e0: eb4f ba3d 31c5 8c3d 0a53 623d 6726 41bd
000000f0: 07e4 c23d b8ae dcbc 8603 613d e643 023d
00000100: 841a dd3c c51e c53d 2892 0cbd b4b9 ecbc
00000110: 3a5e 503d 7428 8bbd 7732 cb3d 406e 21bd
00000120: 80f8 6dba be0d 18bd 762d 3a3d 50db 8bbb
00000130: 427c 85bd fa74 2fbd cbfe 5ebd 78a7 843c
00000140: 2034 0fbb 035a c13d 8f0a 7fbd 00e7 e0b9
00000150: afed c23d 66f8 b3bd 563a 783d 49ac b5bd
00000160: 2d30 8dbd 2172 c5bd 624d a2bd 1265 5bbd
00000170: 9c37 f2bc 9c31 9c3c eb62 9b3d 7480 c8bd
00000180: eff2 af3d c429 8e3c 13c0 c23d b1ac 833d
00000190: b1f6 84bd 5a84 213c 3cfa 8ebd 2a5e 1a3d
000001a0: 725b 36bc 6e34 c7bb b194 b73c 1e82 ca3d
000001b0: b50c aabd 98b6 97bc 18f4 9cbc 791c 4e3d
000001c0: 3667 033b be96 a93d 9f81 c3bd c307 783d
000001d0: a0a3 433d 9ecd 903d eac4 14bc 377f 9a3c
000001e0: dcf9 793c 4869 863d 1beb b73d 38c7 b13c
000001f0: a1fd 753d a4f5 b7bd eab1 e4bd 2ca6 663d
00000200: 9960 ec3c 2670 223d 5ce4 d1bd 6186 cd3c
00000210: a185 d3bd 4669 683d 348d 8e3b 9a83 c1bd
00000220: a186 843c 4cf4 093d 634f bb3d 4801 603d
00000230: f05d b9bd 2e24 a33c 70f2 2abd 5a1e 8d3d
00000240: f758 4ebc 5f82 a7bd 4563 a13d 47da e0bd
00000250: 01d7 41ba 4b6d d43b fb52 313d e39c 7b3c
00000260: ee52 b73c f355 cfbd e5bd 35bd 12bc 74bc
00000270: b682 3c3d d4fb 09bc 6f28 19bd d781 c4bc
00000280: 6e00 493d d401 c83c e8e3 63bc 0fff 693d
00000290: d489 c53d 9f31 9cbd 7709 de3b b2e1 b53d
000002a0: 2d1e 0d3d a684 bbbd bc31 763d c440 2e3d
000002b0: 9162 dabd c96a e3bd 0bf3 94bd 4918 60bd
000002c0: 31b7 ad3c 6b1f 47bd 6d8e 093c fef8 7d3d
000002d0: 5519 933d 1a9b 0bbd 3d43 d03d 909b f8bb
000002e0: 3d59 873d 82d8 02bd 87bb b03d fa23 a7bd
000002f0: ab0d c83d 7b94 b03d edc4 8b3d 60ab c7bb
00000300: 88e5 d6bd 2391 ccbd d6bc 77bd d7fc ccbd
00000310: 1efb 7a3d 70e2 07bd 0361 363d 9d45 9b3d
00000320: 326a 043d 8d66 d5bd 7af1 8fbd e48c c63d
00000330: 6330 b43c c5d5 83bd 98c8 1f3d 7112 43bc
00000340: ffb2 003d d8bc c53d 427a b8bd 4216 5abd
00000350: db89 b3bd 1605 b63d 0cdc c83d e0e4 10bd
00000360: 2be9 653d f71d 65bc afe4 933c 77ca 98bd
00000370: c4c7 6cbd a486 243d 24cf 85bd 9173 903c
00000380: dae3 de3c 3ca7 a8bd 0391 593d d95e 543d
00000390: 776a 01bd e66c da3d 70d7 39bc c7a2 54bd
000003a0: 8879 b0bd b892 36bc 726e 8cbd 0dfe 8dbd
000003b0: 37e8 d0bd f80d 913d 21a0 b03c 7230 683d
000003c0: c02c 93bd 76b5 e23c abac 923d 40b4 3dbd
000003d0: 0887 b13d 553e 72bd 6580 ee3c 3471 37bd
000003e0: 08be b3bb e71b 403d eebd a03c 1262 9f3d
000003f0: 3e0c a2bd dfa2 79bd 003c a1bd 6dc7 73bd
0.03206552 -0.06996922 -0.030727096 -0.09192601 -0.060481127 -0.039382957 -0.10536505 0.07664009
0.072321035 0.08537402 0.007235728 0.010698564 0.016635701 0.09878855 -0.020774283 0.06858552
-0.095244095 0.08264164 -0.040814705 -0.036263622 -0.0625139 -0.030424587 -0.09104166 0.08376271
-0.03947813 -0.04371238 0.09609649 -0.037616894 -0.075094506 -0.033437252 0.03410963 0.053441264
-0.0036646277 -0.0018705279 0.082380496 0.03066685 -0.06256385 0.049989514 -0.04715589 -0.05583353
-0.022569515 -0.102632076 -0.07233627 -0.00017301738 0.032886706 0.098909356 0.060746484 -0.095946394
-0.0270093 -0.008058585 0.1050392 0.074440934 0.09906765 -0.07816197 -0.060702737 0.045751803
0.090972744 0.06873549 0.055254973 -0.047155764 0.09516149 -0.026938781 0.054935 0.031803034
0.026990183 0.096250094 -0.034319073 -0.028897144 0.05087111 -0.06794825 0.09921735 -0.039411783
-0.0009077862 -0.03712248 0.04545351 -0.0042680874 -0.06517841 -0.042836167 -0.05444221 0.016193137
-0.0021851137 0.094409965 -0.06226593 -0.00042896718 0.09517991 -0.087876126 0.06060251 -0.088707514
-0.068939544 -0.09640909 -0.07924916 -0.053563185 -0.029567532 0.019066624 0.075872265 -0.097901255
0.08591258 0.0173539 0.095092915 0.06429423 -0.06492365 0.009858215 -0.06981322 0.037687458
-0.011130201 -0.006079248 0.022409769 0.09888099 -0.08303205 -0.018519685 -0.019159362 0.050320122
0.0020050532 0.08280705 -0.09546208 0.060554277 0.047763467 0.07070468 -0.009080151 0.018859489
0.015257325 0.065630496 0.0898039 0.02170144 0.060056332 -0.08982399 -0.11166747 0.056310818
0.028854655 0.039657734 -0.10248634 0.02508849 -0.10328222 0.05674102 0.004350329 -0.09448929
0.016177477 0.033680245 0.09146001 0.054688722 -0.0905112 0.019914713 -0.041735113 0.06890555
-0.012594453 -0.08179163 0.07880262 -0.10979133 -0.0007394404 0.0064827553 0.043292027 0.015357229
0.022378411 -0.101238154 -0.04437055 -0.014937418 0.046023093 -0.008421857 -0.037392076 -0.023987694
0.049072675 0.024414934 -0.013909318 0.05712801 0.09645429 -0.07626652 0.0067760306 0.088809386
0.034452606 -0.0915616 0.060106024 0.042542234 -0.10663331 -0.11104352 -0.07272919 -0.05471066
0.021205517 -0.048613947 0.008395773 0.062005036 0.07182566 -0.034083463 0.10169075 -0.007586904
0.06608818 -0.03194476 0.08629518 -0.08161159 0.09768232 0.086220704 0.0682467 -0.0060934275
-0.10492998 -0.0998862 -0.060482822 -0.10009163 0.06127464 -0.033174932 0.04452611 0.07581637
0.03232784 -0.10419951 -0.0702848 0.096948415 0.021995729 -0.06437258 0.03900966 -0.011906252
0.031420704 0.0965516 -0.09007694 -0.053243883 -0.08766528 0.08887689 0.098075956 -0.035374522
0.05613057 -0.013984195 0.01805338 -0.07460492 -0.0578077 0.040167466 -0.065336496 0.017633231
0.027208257 -0.082350224 0.05311681 0.051848266 -0.031595673 0.10665302 -0.011342868 -0.05191305
-0.0861693 -0.011143379 -0.06857003 -0.06933222 -0.102005415 0.070827425 0.02156073 0.056686826
-0.0718627 0.027674418 0.0716184 -0.046314478 0.08668333 -0.059141476 0.029113958 -0.044785693
-0.0054853 0.04690161 0.019621816 0.07782377 -0.07912491 -0.06094634 -0.07872772 -0.05951636

conv_block_2.2.bias f4 [10]
00000000: 740d dcbc 024f 9f3d ec40 19bd d488 ccbd
00000010: 116f 723d a811 333d defa c73d 84e3 46bd
00000020: 5242 9abd e62f 5d3d
-0.026861884 0.077787414 -0.03741543 -0.099870354 0.059187952 0.04371801 0.09764646 -0.04855682
-0.07532181 0.054000758

classifier.1.weight f4 [3, 1690]
00000000: d04f 0e3b 0da4 b83c c0a8 76bb 8096 d53b
00000010: be73 493c 61a2 973c 1da4 9d3c 88ea ad3b
00000020: f1f9 a73c 3267 773c b0f4 fcbb 8f21 8f3c
00000030: 9d9b 66bc 4d47 c5bc 20ea 743b c49c e23b
00000040: 680d 3b3b 9693 1bbc 506f d33b e096 6bbb
00000050: f09c 86ba 574f 55bc aa50 303c dd10 b63c
00000060: 50a4 9ebc 9651 59bc e7c3 a93c 6a92 523c
00000070: 0afc 8abc c49e 89bc 352b 19bc fe41 453c
00000080: a61c a3bc b6a3 2e3c ee23 753c c418 eb3b
00000090: 5942 863c 08c4 22bc 38b5 84bb 0fbc bd3c
000000a0: 6e1e 5d3c c0c5 c4bb 76f3 003c 1ebb 0a3c
000000b0: c8a8 47bc 1741 8f3c 702c a1bc 4882 9abb
000000c0: 0030 a6bc 2503 803c 5b7f 47bc 4a05 263c
000000d0: 524c c0bc cff6 843c bd0c b1bc a4de cdbb
000000e0: 18af a1bc 7ee6 0f3c 8088 8abb be8d 653c
000000f0: b09e c83a e05b b2ba b4b7 a83b 691a 843c
00000100: 3547 42bc 5cef 9fbc 320b 92bc b52b 4cbc
00000110: b3f8 943c 0f27 7ebc 154a 72bc 08f3 73bb
00000120: 84e1 b7bb 82d1 0c3c 39cd 3cbc e68d 453c
00000130: a256 83bc c8e8 db3b 4eb7 8dbc 708e ca3b
00000140: 42aa 9dbc 21e7 853c a72f ad3c 18bb e7bb
00000150: 3c3a ebbb 4bf0 853c 76b9 113c 3e0e 7a3c
00000160: 95a2 77bc a48d 33bc e0c7 18ba 06ba 223c
00000170: f1f4 c1bc d099 c93a c155 973c 177e a43c
00000180: 14b6 d43b f783 8cbc c099 17bb a0e7 94bb
00000190: 0c51 19bc 7f7b a0bc e95c aabc 647a bc3b
000001a0: 6016 29bb a69e 563c 177d 40bc c599 9a3c
000001b0: aa60 723c b03f 983a 1833 913b b218 4c3c
000001c0: 0bb4 c13c c2d4 38bc 11a6 853c 5266 b8bc
000001d0: 6947 c63c 2d2f bb3c 6807 78bb e044 51bc
000001e0: 7943 a93c 6cd0 833b 04fb 77bc 108a 313b
000001f0: b2a9 aabc 9afc 593c aa5f 43bc 3ed7 3ebc
00000200: 893b 86bc b695 153c 731d a13c 70ae e3bb
00000210: 45cb 80bc 00df 5d39 7f24 863c 7c38 a83b
00000220: 707c 0a3b 3540 15bc d027 65bc 43cb 983c
00000230: 83b0 b13c e361 c63c 24e4 afbc dfbe c63c
00000240: aee5 8abc a467 8e3b d0c8 733b 2d36 ad3c
00000250: b664 413c 0f1b 863c 336f bf3c 4045 733b
00000260: b201 4c3c 024b 5c3c 8e6a 48bc 3b32 0fbc
00000270: 2792 973c cc8a e63b b910 b43c 3570 4abc
00000280: 7a6e 0b3c 6c9c c0bc 30db 993b 00ff 33bb
00000290: 0e33 0e3c 6caf abbc cc43 e43b b76d b53c
000002a0: 8352 8b3c 8d22 5e3c 0ebc 1a3c 5fdb 0c3c
000002b0: 5d36 edbc ccf0 8dbc 3ab3 cebc 8c83 54bc
000002c0: 38f4 a13c babc d4bb 001d 883b 93b6 c7bc
000002d0: 2bae 0d3c c14a d93b 2c42 213b 3f05 95bb
000002e0: f573 8ebc c088 90bc 64e0 a6bc 2671 853c
000002f0: 97be 73bc cfa9 96bb 79ec 2a3b a2c9 cbbc
00000300: 9e42 c13b 0ad1 b43b a051 7ebc 8582 2a3c
00000310: 813c 2c3c 9ced 97bc bfc5 ee3b 87b7 d3bc
00000320: 19d5 293c 9097 773c c61a e83a 1ce6 7fbc
00000330: d2cb 933c 2096 a5b9 8ae2 82bc aabe a7bc
00000340: 6ad9 9cbb 450d 86bc a59f 8e3c 2590 8c3c
00000350: db10 e2bb 08ea c5bc 5b29 9abc 7b51 a9bb
00000360: b648 e7bc c4a5 c03b e7c8 ebbb 522f afbc
00000370: 8c1a e9bc d659 e3bc 4f40 963c e85d 073c
00000380: 1457 0bbc fe2d 02bc d586 9fbc 8c95 e0bc
00000390: cc6e 313c 2a02 5dbc c87d 713c f0e7 243c
000003a0: 768a bdbc 09b0 133a f6c7 38bb effc 3fbc
000003b0: 85eb cfbc 7d02 f6bc 6c55 923c bc83 b0bc
000003c0: ae66 99bc cc86 71bc 3b4b d4bc 82b5 0e3c
000003d0: 265f f1bc 2495 92bc a3e5 2e3c 6357 0dbc
000003e0: 3850 d2bb 88c6 6a3a 34b2 073c 7e00 ddbc
000003f0: bd91 9cb8 93f2 fbb8 9033 fe3b 1563 17bc
0.0021715052 0.022539163 -0.0037637204 0.006518185 0.0122956615 0.018510045 0.019243294 0.0053074993
0.020504924 0.015100287 -0.0077195987 0.017472057 -0.014075187 -0.02408185 0.0037370995 0.0069156606
0.0028541926 -0.009495636 0.0064524785 -0.0035948083 -0.001027016 -0.013019404 0.010761419 0.022224838
-0.01936546 -0.0132640805 0.020723296 0.012852291 -0.016965885 -0.016799338 -0.00934868 0.01203966
-0.019911122 0.010659149 0.01496218 0.007174583 0.016389059 -0.009934433 -0.0040499233 0.023160962
0.0134960245 -0.006005019 0.007870546 0.008467464 -0.012186237 0.017487092 -0.01967451 -0.0047152378
-0.02028656 0.0156265 -0.01217636 0.010133097 -0.023473892 0.016230969 -0.02161252 -0.0062826443
-0.019736812 0.008782981 -0.004227698 0.014010845 0.0015306082 -0.0013607703 0.0051488522 0.016125875
-0.011857797 -0.019523315 -0.017827604 -0.012461592 0.018184995 -0.015512242 -0.01478817 -0.0037223715
-0.0056116004 0.008594872 -0.011523538 0.012057757 -0.01603252 0.0067110993 -0.01729932 0.0061815307
-0.019246224 0.016345562 0.021140886 -0.007071864 -0.007178573 0.016349932 0.008894315 0.015262185
-0.015114446 -0.010959063 -0.00058281235 0.009932047 -0.023676367 0.0015380923 0.018473508 0.020079656
0.006491432 -0.01715277 -0.0023132414 -0.0045442134 -0.009357702 -0.019590138 -0.020796256 0.005751895
-0.002580069 0.013099348 -0.011748574 0.018872151 0.014793554 0.001161566 0.0044311397 0.01245706
0.023645421 -0.011281194 0.016314538 -0.022509728 0.024203973 0.022849644 -0.0037846211 -0.012772769
0.020662056 0.0040226486 -0.01513553 0.0027090348 -0.02083287 0.013304854 -0.011924664 -0.011647997
-0.01638581 0.009129932 0.019667363 -0.006948285 -0.015721926 0.00021159276 0.016374825 0.0051336866
0.00211313 -0.009109546 -0.013986543 0.01865161 0.021690613 0.024216598 -0.02147109 0.024260936
-0.016955223 0.004345851 0.003719855 0.021143997 0.0118037965 0.016370324 0.023368454 0.0037120134
0.012451576 0.013445618 -0.012232436 -0.008740003 0.018502308 0.007035589 0.02198063 -0.012355854
0.008510226 -0.023512088 0.0046953186 -0.0027465224 0.008679165 -0.020957671 0.00696609 0.022147043
0.017007118 0.013558042 0.00944425 0.008597224 -0.028956586 -0.017326735 -0.025231946 -0.012970816
0.019769773 -0.0064922245 0.0041538477 -0.02437905 0.008647482 0.006631226 0.0024606092 -0.0045477445
-0.017389277 -0.017643332 -0.02037067 0.016289305 -0.014876983 -0.0045978795 0.002608089 -0.02487642
0.005897834 0.0055180835 -0.015522391 0.010407095 0.010512472 -0.018545918 0.0072867568 -0.025844349
0.010365748 0.015111819 0.0017708174 -0.015618827 0.018041525 -0.00031583104 -0.015977163 -0.020476658
-0.00478666 -0.01636375 0.017410109 0.017158577 -0.006898982 -0.024159446 -0.018818548 -0.005167184
-0.028232913 0.005879136 -0.0071955803 -0.021384869 -0.028455041 -0.027752798 0.018341212 0.008262135
-0.008504648 -0.007945536 -0.019473473 -0.02741506 0.010829639 -0.0134892855 0.014739461 0.010065064
-0.023137312 0.0005633836 -0.0028195358 -0.011718019 -0.02538086 -0.030030483 0.017862998 -0.02154719
-0.01872572 -0.014741611 -0.025914779 0.008710267 -0.029464316 -0.017893381 0.010674867 -0.008626792
-0.006418254 0.0008955975 0.008282233 -0.026977774 -7.4658055e-05 -0.00012013796 0.0077576116 -0.009239932

classifier.1.bias f4 [3]
00000000: 7772 8bbc 33d5 78bc 71a5 28bc
-0.017022355 -0.015187549 -0.010293351
