going_modular/models/05_going_modular_cell_mode_tinyvgg_model.pth (torch, 35783 bytes, 10 tensors)

conv_block_1.0.weight f4 [10, 3, 3, 3]
00000000: 97c1 213e 6dae 2e3e 6a2f 0ebd 12c5 3f3e
00000010: fe5a 03bd 9e20 483d b403 a9bd afc5 fd3d
00000020: 0356 383e 0b90 14be f5eb 273e c835 f93c
00000030: 74d3 0c3e 550f af3c 95a9 b23d 03ae 09bd
00000040: 4391 113e 80d3 ba3c a984 8bbd 9ca6 943d
00000050: 9227 8bbd ea89 58bb c7f9 6cbd 8ce2 163e
00000060: 3ba4 0cbe f004 96bd d18e 16bd 3d75 07be
00000070: 3748 ae3a ef71 55be db3c 183e 1f61 3dbe
00000080: ac00 013e 7322 e83b 21b8 afbd ef28 bf3d
00000090: 5432 7d3c 4d1d 0f3e 359f 2d3b f00c a8bd
000000a0: 4567 023d eaa8 90bd 0ec1 663d 0f19 193e
000000b0: 79c0 b73d b5e1 c9bd 722f c33d 24c3 903c
000000c0: abcc a73d a326 06be 4ec6 50be c115 b3bd
000000d0: cf5c 20be 81cf 1b3e 861f 773c 2d6f 2e3d
000000e0: 4711 bb3c 90b0 30bd 16b7 e93d cabe 2fbe
000000f0: 52c5 eebc 3340 2ebe 58f7 b63c df64 ccbd
00000100: 6789 f23c b79c 90bd dc29 ff3d 6e0a 14be
00000110: d1a9 12be 54a7 1dbe 3086 0c3e 6766 013d
00000120: 291b 213e 6770 38be 2b68 5abe 0ab0 39be
00000130: 7fe8 1ebe 9bdd 633d 1e09 ea3c a65a fe3d
00000140: 9692 05be 3cfa 1fbe f874 9c3d 2277 d2bd
00000150: 6465 c23d 69c1 8bbd d4f0 b23d d851 2dbe
00000160: 660d f0bd 5f5f 193d 2b43 583d 2f5f 14bd
00000170: da3c ff3d 3ce9 173e aee8 f7bd 631a b4bd
00000180: 22ce 463e 7379 33bd c6b7 51bd f61d 38be
00000190: 86e6 ccbd 678b 383d bbf9 25bc 5bc1 ecbd
000001a0: ba8e 8b3c 90c7 e0bd 365c 0abe 4e70 b4bd
000001b0: 74d6 19be 86ac d8bd fb79 4a3e 3971 513d
000001c0: 4505 933d 38d6 2fbe abe9 ecbd 8948 52bd
000001d0: 3b1e 1e3d 3401 14be c242 81bd 0261 e8bd
000001e0: 7ad5 ae3c e349 71bd 6a5c 26bc 8483 eebd
000001f0: c735 f1bd 609a dabd 0a19 80bd 0bcf 1fbe
00000200: 5e7b 113e 8e94 12bd 6430 1f3e 16ef 2c3d
00000210: c1ee 24be 71a1 033e b294 87bd 6b30 d0bd
00000220: 93f2 45be cdd6 73be c908 a73c f66f a6bd
00000230: afe5 953c 16c7 42be da55 d83d 5534 46be
00000240: 5734 2fbd a1df e93c 4c41 b23d 572e 083e
00000250: d7f2 1c3e 69a1 36be 417a de3c 9e13 d3bd
00000260: 4557 65bd 6813 19be 398b 333e a8e9 0bbe
00000270: 0b63 d43d 70e3 933d d187 633d 767c ddbd
00000280: 522a 2f3e 9f0c 8c3c 7390 883c c3d2 32be
00000290: 157c 9b3d 4efe 0ebd e47d bdbd 6c30 223e
000002a0: 4a9d 1e3d a39d e6bd c1d1 ddbd 7a77 aebc
000002b0: 513a c53d acbf 6ebd b17b efbd 2a09 97bd
000002c0: 3323 1cbe a97d 7e3d 9362 0f3e 7faa 42be
000002d0: 87fb 0a3d e6e5 b53d 6f0b d23c 1f75 9dbd
000002e0: 7b15 bb3d 886a bb3d 656a 813d 2bf8 35bd
000002f0: fdd6 71bd ead6 3dbc 2dad 83bd cda5 b1bd
00000300: 618e bd3d 5b03 0a3e dbc5 48bd 3a37 93bd
00000310: ff6b cebc 0558 21bd 7bae 783c 7fd3 d13c
00000320: 9ea6 4ebe 7206 cebd 7165 073e c954 3d3d
00000330: 7f0a 16bd 736f 11be 2676 13be 137b 46be
00000340: 2ad1 abbd da7d 363d bf6d cd3d d713 853d
00000350: a056 46be 97c5 0bbe 0a54 55bd d446 273e
00000360: cb75 913c 59d9 72bd ffa7 8d3d e763 98bd
00000370: cfb0 01be f837 0a3e 8689 aebd 3e93 18bd
00000380: 9ac3 46be fc17 023e 543b 163e f577 943d
00000390: 85bf f2bd 2e88 2fbe a398 10be 3053 223e
000003a0: c403 e13d d366 343e a2cd 7a3d 88fe 643c
000003b0: d208 03bd 52a4 2abe 8caf 35be bad9 46be
000003c0: 2ba7 6c3d 562e d6bd d2b6 5dbd 10d4 e2bd
000003d0: 74a4 0fbd 37b4 0abe 96c4 00be 62bd 823d
000003e0: cc45 6abd 7a51 f33d c0e2 7cbd 3390 10be
000003f0: 2015 0bbd a90e bfbd 902a 71bd d59b 3bbe
0.15796505 0.17058726 -0.034713186 0.1872752 -0.0320692 0.04885923 -0.082526594 0.12391221
0.18001561 -0.14508073 0.16398604 0.030421153 0.13752538 0.021369616 0.087237515 -0.033613216
0.14215569 0.02280593 -0.06812412 0.07258341 -0.06794657 -0.0033041188 -0.057855394 0.14734858
-0.13734524 -0.073251605 -0.036757294 -0.13228317 0.0013296668 -0.20844243 0.14866965 -0.1849408
0.12597913 0.007084185 -0.08580042 0.09333979 0.015453894 0.13976021 0.00264926 -0.08205593
0.031836767 -0.07063468 0.056336455 0.14950965 0.08972258 -0.09857503 0.09530534 0.017671175
0.08193334 -0.13100676 -0.20388147 -0.087443836 -0.15660404 0.15215875 0.015083199 0.042586494
0.022835387 -0.043137133 0.11411874 -0.17162624 -0.029146824 -0.17016678 0.02233474 -0.09980177
0.029606534 -0.07061141 0.12459156 -0.14457104 -0.14322592 -0.15395862 0.13723063 0.0315918
0.15733017 -0.18011628 -0.213288 -0.1813356 -0.15518378 0.05563126 0.0285688 0.124196336
-0.130442 -0.156228 0.076394975 -0.10276629 0.09491995 -0.068239994 0.087373406 -0.16925752
-0.117213055 0.03744447 0.05279843 -0.036223587 0.124627784 0.14835066 -0.12104927 -0.08794095
0.19414571 -0.043816995 -0.05120065 -0.17980179 -0.10004906 0.04505482 -0.010130341 -0.11560317
0.01703583 -0.109755635 -0.13511738 -0.08810483 -0.15023214 -0.10579781 0.19773094 0.05113337
0.071787395 -0.17171562 -0.11568006 -0.051338706 0.03860305 -0.14453584 -0.06311561 -0.11346628
0.021342028 -0.058908354 -0.010153869 -0.11646178 -0.11777835 -0.10673976 -0.06254776 -0.15606324
0.14207217 -0.035786204 0.15545803 0.042220198 -0.16106702 0.12854554 -0.06620158 -0.10165485
-0.19330816 -0.23812409 0.020389931 -0.081268236 0.018297998 -0.19021258 0.1056325 -0.193559
-0.042774525 0.028549017 0.08703861 0.13298927 0.15327011 -0.1783501 0.027157905 -0.10306476
-0.05599143 -0.14948809 0.17533578 -0.13663352 0.103704534 0.07221115 0.055549446 -0.10814755
0.17105988 0.017095862 0.016670441 -0.17463212 0.07592026 -0.034910493 -0.09252527 0.15838784
0.03872422 -0.112605356 -0.10831023 -0.021297205 0.096302636 -0.05828826 -0.11693514 -0.07374795
-0.15247802 0.062131558 0.14002447 -0.19010352 0.03393128 0.0888174 0.025640218 -0.07688355
0.091349564 0.091511786 0.06319121 -0.044426125 -0.05904292 -0.011586884 -0.06429515 -0.08674202
0.09255672 0.13477843 -0.049016815 -0.07188268 -0.02519798 -0.039390583 0.015178318 0.025613545
-0.20180747 -0.10059823 0.1322229 0.046223436 -0.036631104 -0.14202671 -0.14400539 -0.19382887
-0.08389504 0.044553615 0.10030698 0.06497925 -0.19368982 -0.13649593 -0.0520821 0.16335613
0.017756363 -0.05928931 0.06916808 -0.0744093 -0.12665103 0.13497913 -0.08522324 -0.037249796
-0.19410554 0.12704462 0.1467107 0.072494425 -0.11852936 -0.17141792 -0.14120726 0.15852046
0.10987046 0.1761735 0.061231263 0.013976701 -0.031990834 -0.16664246 -0.17742747 -0.19418994
0.05777661 -0.10458057 -0.05412943 -0.11075604 -0.035068944 -0.13545309 -0.12574992 0.06383778
-0.05719547 0.11880775 -0.061739683 -0.14117508 -0.033955693 -0.09328968 -0.05887848 -0.18321164

conv_block_1.0.bias f4 [10]
00000000: 748c 243d d515 5cbe 9db3 b03d 4889 563e
00000010: a37b 7f3e 2cd3 1bbd de1a 2cbe 8608 3b3c
00000020: 29e4 303e f724 44be
0.04017301 -0.21492703 0.086280085 0.20950806 0.24949507 -0.038043186 -0.16807124 0.011415606
0.17274536 -0.19154726

conv_block_1.2.weight f4 [10, 10, 3, 3]
00000000: 68c5 08bd c36c 9bbd 9239 b0bc 1ae0 66bd
00000010: cd4e 5bbd 3246 3dbd ba91 d4bd 5eb9 a23d
00000020: e64b 9d3d 2d8c d3bb c4cd 11bc c630 07bd
00000030: 8823 f7bd c58b 92bd d8fb 593d 386f d3bc
00000040: 807a 37bc 721e 133d adb0 a2bb 5ad7 8bbb
00000050: 356a e33c 4517 1e3b cfaf cbbb bea6 babc
00000060: aee4 8fbd 21c8 d73d b574 9ebc 65ec d93d
00000070: 790e 5a3d 998f dd3d 0600 2b3e 4ce2 f73d
00000080: e6f6 323a 060d e63d 1faa 2e3e 6f4f de3d
00000090: ae84 303e 8f39 5e3e 0108 c73d 3867 e63d
000000a0: c179 013d 9b39 bf3d 0a8e 2b3e 60fe 173e
000000b0: 8eb8 0b3d b2fb dabd f1ec d2bd 272c 05be
000000c0: b047 bfbd e09a d9bc acfe 393d b89b 8f3c
000000d0: 0cba b1bd e53b bdbd 6780 833d 2559 9dbd
000000e0: fcc0 283b 5824 033d 65c0 6fbd f1fd 973b
000000f0: f853 16bc 441c 8dbb 058c 1cbd 3539 59bd
00000100: 3e30 66bd 7658 0bbd 8ada 073e b4c4 7bbc
00000110: 3d83 21bd b8cb 853d 5a6a 923d b0fe b23d
00000120: 8579 1a3e 4e15 1b3e 3926 b23b 11d2 913d
00000130: 51ca 0a3e 8ec5 9d3d c535 323c 2b97 343e
00000140: dab9 343d 6fd1 75bd 45a0 c2bd 6049 9a3b
00000150: 5653 3f3d 4c26 bf3c 64c2 aa3c 23b8 a3bd
00000160: 1a9b c9bd 804b f33a 37d9 e83d e5b1 a03d
00000170: bced 2fbd 61b3 dc3b bd5c 6cbd 09e4 03bd
00000180: e2a7 283d 55ef 9f3d 24eb dc3d 2f6f bdbd
00000190: cb88 9b3d 4fdb 87bd 84c7 3a3d 8db2 bb3d
000001a0: ad62 b53b c8cd ca3d 230d b1bd 3db3 16bd
000001b0: 9d11 8d3d 552e 88bc b225 37bc 6b16 fdbc
000001c0: 2ba3 ae3d 0841 823d 10e5 493d 821b 37bd
000001d0: f123 98bd 0086 4ebd 1afa ecbc b68e e3bd
000001e0: ac48 b1bd 7be2 683c 67cf 61bd 5ece 4dbd
000001f0: 5bd9 a2bd c092 17be fac9 52be 8845 1bbe
00000200: 0c8e 28be 8482 94bd fba5 17be 6e83 2abe
00000210: 0718 14bc 64c7 a2bd 1bca 23bd 96aa a2bd
00000220: 17ea 32bd a232 ac3c e252 c2bd 37e1 a8bd
00000230: 104d babc 0c53 0dbd 3b8c 86bd a049 5b3d
00000240: 5eb5 813d 03d1 533c 2c09 09bd 2500 abbd
00000250: 5625 6ebd 1994 2c3c 8b60 593d 4903 3dbc
00000260: cf8f 31bd 9db5 733d 3ee6 a6bd 5626 9f3d
00000270: 40d1 20bd f01b f7bb bcd8 c2bc 2b8f b73c
00000280: 6836 e7bc 9c08 9e3d e2f3 cbbd b62d 03bc
00000290: 946e c43c 242f 21be 3b10 33be a55f 10bc
000002a0: d830 29bc 109f 3fbe a22d d8bd 15e2 d4bd
000002b0: b9b7 b0bd f4c7 a63c 64b9 e53c 5c0c b73c
000002c0: 8404 ebbc 152a c73d 30ed 763c d9c5 7ebd
000002d0: d4f4 d0bb 8e11 e33c 18d3 243d 2937 9bbd
000002e0: f2b2 2a3d 1893 4ebd f1f0 b6bd 56f0 66bd
000002f0: dd6b d73d 8d8b b83d c750 c13d 2272 7d3d
00000300: c715 a33d 7029 67bc 7a90 6dbd daba 573d
00000310: 8bba 5fbd 55b0 91bd f67e 4dbd 9f61 153c
00000320: 0598 3c3d 272c 56bd a45c 9abd 8c79 c63b
00000330: 1253 96bd d83b b1bd 178e 1e3d f375 f5bc
00000340: f8aa a13d 6567 aa3d e08b b23c 6448 aa3c
00000350: 74b8 943b 6da9 2abc 82f9 bdbc 364d 98bc
00000360: 9be9 1b3d d12b c53d 1a72 11bd 6a4e 45bd
00000370: e577 d9bc 797f 5fbd a6a2 393c ee38 9e3d
00000380: 06bb a43d f63a 463d 1ddf 9ebd c6b9 67bd
00000390: 3cb9 bdbc 8c2a 9fbc 400b 0e3c 852b c6bd
000003a0: c261 063d fbaf a4bd 8498 88bd 327a b3bd
000003b0: 5119 bc3d 736c ccbd efd9 a23d a03a 68bb
000003c0: d8d9 48bc f306 873d f89f 1fbc 0606 3e3d
000003d0: 612b 5d3d c51c e1bd 7bbe a03c eef2 37bb
000003e0: 5609 fd39 0c35 9bbb c5d9 123c 4174 8ebd
000003f0: 4c02 acbc ef6b b73d 0daa 6c3d 2018 40bc
-0.033391386 -0.07589104 -0.021511827 -0.056366064 -0.053541947 -0.04620952 -0.10379358 0.07945512
0.07680492 -0.0064559192 -0.008899156 -0.0330055 -0.12067324 -0.07155565 0.053218693 -0.02580987
-0.01119864 0.035917707 -0.004964909 -0.0042676153 0.027760604 0.0024122756 -0.0062160264 -0.022784587
-0.07026039 0.105362184 -0.01934276 0.10640792 0.05323646 0.10818405 0.16699228 0.121037096
0.0006826952 0.11232953 0.17057084 0.108549945 0.17238113 0.21701644 0.097183235 0.11250156
0.031610254 0.09337159 0.16753402 0.1484313 0.034111552 -0.10692538 -0.10299099 -0.13005124
-0.09339845 -0.026563108 0.04540889 0.017530307 -0.08678064 -0.092399396 0.06420975 -0.076830186
0.0025749793 0.032017082 -0.05853309 0.0046384265 -0.009175293 -0.004306348 -0.03821947 -0.053033073
-0.05619835 -0.03401991 0.1326696 -0.015366722 -0.0394318 0.06532997 0.07149191 0.08739984
0.15085419 0.15144846 0.0054366854 0.07120145 0.1355374 0.07703696 0.0108770775 0.17635791
0.044122554 -0.060014185 -0.09503225 0.004708454 0.046710335 0.023333691 0.020844646 -0.07994106
-0.098440364 0.001856193 0.113695554 0.07846431 -0.04295133 0.006735251 -0.05770563 -0.032199893
0.04117573 0.07809321 0.10787037 -0.09249722 0.075944506 -0.06633627 0.04560043 0.09164915
0.0055354447 0.09902531 -0.08645084 -0.03679203 0.06888125 -0.016623655 -0.011178421 -0.030894479
0.085272156 0.0636006 0.049290717 -0.044703968 -0.0742873 -0.05042076 -0.028927851 -0.11111204
-0.08656439 0.014214153 -0.055129435 -0.050245635 -0.079516135 -0.14802074 -0.2058486 -0.15163243
-0.16460437 -0.072514564 -0.1480941 -0.16651699 -0.009038932 -0.07948187 -0.039987665 -0.07942693
-0.043680277 0.021020237 -0.09488465 -0.08246081 -0.022741824 -0.034503028 -0.065697156 0.05353701
0.06333421 0.01292825 -0.033456013 -0.08349637 -0.058141075 0.010533356 0.053070586 -0.011536428
-0.043350037 0.05949937 -0.08149384 0.07770984 -0.039262056 -0.007541172 -0.023784988 0.022407135
-0.028224185 0.07716486 -0.09958626 -0.008006504 0.023978509 -0.15740639 -0.1748666 -0.008811866
-0.010326587 -0.18713021 -0.10555579 -0.10394684 -0.08628792 0.020359017 0.028042503 0.02234476
-0.028688677 0.097248234 0.015071198 -0.0622004 -0.006376842 0.027718332 0.040240377 -0.0757888
0.04167456 -0.05043325 -0.08932675 -0.056381546 0.1051862 0.09010992 0.09439235 0.061876424
0.07963138 -0.014109001 -0.05799911 0.05266843 -0.05462126 -0.07113711 -0.050169908 0.009117513
0.046043415 -0.0522882 -0.07537201 0.00605697 -0.07340063 -0.086539924 0.038709726 -0.02996347
0.07893938 0.08320502 0.021795213 0.020786472 0.00453859 -0.010416371 -0.023190264 -0.018591505
0.03806458 0.09627498 -0.035509206 -0.048170485 -0.026546428 -0.054564927 0.011330282 0.07725702
0.080434844 0.048396073 -0.07757399 -0.05657365 -0.023159616 -0.019429468 0.008669674 -0.096762694
0.032808073 -0.08041378 -0.06669715 -0.08763541 0.09184516 -0.099816225 0.07951724 -0.0035435334
-0.012258969 0.06593122 -0.009742729 0.046392463 0.053996447 -0.109918155 0.019622078 -0.0028068381
0.00048262876 -0.0047365483 0.008963053 -0.069557674 -0.020997189 0.089561336 0.05777936 -0.011724502

conv_block_1.2.bias f4 [10]
00000000: 5ce1 353d dfa2 0b3c 4444 c7bd f2f7 b5bd
00000010: 0fd5 683c e919 54bd ddf1 97bc 70e4 dcbc
00000020: 05c3 723c f95d 2e3d
0.044404373 0.008522718 -0.097298175 -0.088851824 0.014210953 -0.051782522 -0.018547947 -0.026964396
0.014817004 0.042570088

conv_block_2.0.weight f4 [10, 10, 3, 3]
00000000: ce1a 6ebd b187 483d 7782 783d 2d0b debd
00000010: 89fd 04be c22f f5bd 51e1 90bd deab 69bd
00000020: 40d4 96bc 1f86 d6bc d537 51bd 54b7 10bd
00000030: e7ab 15bd 7497 df3d ed06 0fbd 2504 9ebd
00000040: 10e9 333d 456b e7bb 4beb 9f3d a638 903d
00000050: 3543 d13d 4fe1 a4bd 21e1 943d 4976 b23d
00000060: 47ac 56bd 4665 ca3d 5690 963d 1655 133c
00000070: a648 703d 704d f9bc ad5f acbd 6e41 0d3d
00000080: f823 1b3d de15 7abd 5784 713d 43eb a5bd
00000090: 49be 2c3d 4d71 8f3d 469d 813c 7bbe c3bd
000000a0: 11f2 053d 94f8 d33c 469e 393c 535c f03c
000000b0: 4889 b23d 7088 3ebd 582d 09bd f2e7 d53c
000000c0: 6a86 663a 5099 983d 8ddf 87bd 9528 e7ba
000000d0: 909c 993c 790b 1bbd 0ef6 783d 51bf 5aba
000000e0: 5d00 e3bd a851 75bc d119 60bd faec ab3a
000000f0: e02e 90bc 6e58 e8bd 714d fbbc 614e a9bc
00000100: 1ce9 24bd 0781 aa3d aab9 e8bc 2cde 843d
00000110: 84b8 9b3c bdf1 c4bd 427f 903c e403 9b3d
00000120: 9ebf 56bd c49e 80bd 3d98 d13d d4b3 fe3d
00000130: ab20 6dbd 0e8f 823d 0da2 783d 0e0f 33bd
00000140: 40de 5a3d dd1b f03c e960 09bd f3ca ee3c
00000150: a29c c0bd 95e1 943d 2511 b23d 0fc7 493d
00000160: 779a 233c b7f2 cc3c b1fa e2bd f83b 10bd
00000170: 371a 1f3c 614d 94bd fa33 c0bd c3be ae3d
00000180: 00be 493d e7be c6bd 046a 533d 3fe7 0a3d
00000190: 9795 ba3d adfa 4e3d 8579 b13d 9932 2dbd
000001a0: ed4c 813d 9a88 9d3d 468f dbbd a777 c3bd
000001b0: a5cf ae3c e9c2 6b3d b57e 23bd 9714 faba
000001c0: a072 1fb9 f44a 493d 7f4f 11bd 9302 3d3d
000001d0: c65e c43d 6e5a a4bd 6ce5 c3bb f69d d23b
000001e0: 42bd 2a3d a91b c93d 553d fd3c 24f8 01bd
000001f0: bbdc b13d ad5c 04bd f6ab 3cbd a841 8d3c
00000200: 6d47 e4bd ff0f 423c 64f7 a0bd 1b18 83bc
00000210: e107 1d3b 15eb c83c ad90 b6bd 4f26 c0bd
00000220: 9fbc 5f3d 50a5 ad3d 7686 ccbd 70df 063d
00000230: 6be1 abbd b347 dd39 1cc8 d53d 93c9 963d
00000240: 07cd 90bd 495b 933d 78bd 873d 2f34 8f3c
00000250: e9ad f83d 3b2e 13bd 9c1e 27bc b4d4 0ebd
00000260: dae3 063d 1def ce3c e12d 9d3b a5de 81bd
00000270: 4f5a 2fbd 8916 293d c665 c2bd dee2 6fbc
00000280: a06a 11ba 3f0a 40bd 6c71 8d3c 1992 b5bc
00000290: 57c6 6d3c 9df6 71ba 6f91 93bd c840 a03d
000002a0: 1a6c 023d 6ccc 1cbd 43a3 b5bd 9192 8a3c
000002b0: ec8d dfbd 3841 9e3c 0e01 383d f801 c8bd
000002c0: b0f4 a1bd b5bb abbd c7d8 a53d d181 a23d
000002d0: 886a 88bd 6acb 0e3d 6842 b7bd 5755 38be
000002e0: ac59 73bc fadb b63b 0a52 3e3d 70af 2bbd
000002f0: 0b6d 663d 9d39 2d3d 4d9b 523d 967d 05be
00000300: 826a 853d b328 eebd 91ad 873d 0e5d fcbc
00000310: 898a fcbd c6cb 3fbb 2feb afbc 46f7 9abd
00000320: b11f abbc 3f57 ca3c 8b89 d23d f56b 76bc
00000330: 09bc a43d 6574 153d 5ddf ff3c 6f21 e53c
00000340: b6b0 9dbd fbf5 a5bd 0b1f cfbc e336 b9bd
00000350: 835d 2fbd b982 4f3c 050a 9ebd d7aa 17bd
00000360: ac4b b83c 55fa e93c 2647 54bd 8ab4 2d3d
00000370: ba44 163d 1635 5a3d 15d9 123d dc6b 03bd
00000380: a95a 0cbd 5795 06bc 3c0c 9dbd f88a da3b
00000390: 84ce 13bc ed3c 2d3d bc2a f03c 1948 8b3d
000003a0: cfc7 7bbb 85e9 b5bd 79bd 4c3d 03fc 82bd
000003b0: fb30 bdba 7aa3 d9bc e687 14bd 9e68 01bd
000003c0: d62d d73d c6d2 833d ecf7 0b3d 15bc ac3d
000003d0: 7315 e6bd 736e 5eba d1d2 603d c3ed 513d
000003e0: 5c6e d6bd 6f6b a63c 95ab acbd b075 01bd
000003f0: 7b3e 22bc 9749 29bd 3d1b ddbd 15d3 4cbd
-0.05813103 0.04895753 0.060671296 -0.10841975 -0.12987341 -0.11972 -0.07074226 -0.05704867
-0.018411756 -0.026187 -0.051078636 -0.035331085 -0.036540892 0.10917559 -0.034918714 -0.07715634
0.043923438 -0.007062348 0.078085504 0.07042055 0.10217897 -0.08050787 0.072695024 0.08713967
-0.05241039 0.098825976 0.07351749 0.008992454 0.058663033 -0.030432433 -0.08416686 0.034486227
0.0378761 -0.06105601 0.0589641 -0.08101513 0.042173658 0.07004032 0.015822064 -0.09557816
0.032701556 0.025875367 0.011329239 0.029340899 0.087175906 -0.046516836 -0.03349051 0.026111577
0.0008793833 0.07451117 -0.06634436 -0.0017635996 0.018751413 -0.037852738 0.06078153 -0.00083445484
-0.11084054 -0.014973082 -0.05471212 0.0013116889 -0.017600477 -0.113449916 -0.030676575 -0.020667257
-0.040261373 0.08325391 -0.028408844 0.064876884 0.019008882 -0.096164204 0.017638806 0.075691015
-0.052428834 -0.06280282 0.10234115 0.12436643 -0.057892483 0.06374942 0.06070142 -0.04371553
0.05343461 0.029310161 -0.033539686 0.029149508 -0.09404875 0.07269589 0.08694676 0.049262103
0.009985558 0.02501808 -0.11082972 -0.03521344 0.00971084 -0.07241321 -0.09384914 0.08532479
0.049253464 -0.097043805 0.051614776 0.03391194 0.09110563 0.05053203 0.08665756 -0.04228458
0.063135006 0.0769207 -0.107206866 -0.09544306 0.021339247 0.057558928 -0.03991576 -0.0019079623
-0.00015206123 0.049143746 -0.035476204 0.046145033 0.09588389 -0.080250606 -0.005978277 0.006427522
0.041684397 0.09819729 0.030913034 -0.031730786 0.08684679 -0.032314945 -0.046062432 0.017243221
-0.11146436 0.011844634 -0.07859686 -0.016002705 0.0023960995 0.024526158 -0.089143135 -0.09382307
0.054623242 0.084787965 -0.09986584 0.03292793 -0.083926044 0.00042205825 0.104385585 0.07362666
-0.07070356 0.07195146 0.06627935 0.017480938 0.12142546 -0.03593276 -0.010200169 -0.03487082
0.03293214 0.025260502 0.004796729 -0.06341294 -0.042810734 0.041281257 -0.09492068 -0.014641492
-0.00055471994 -0.04688477 0.017265998 -0.022164391 0.01451262 -0.00092301687 -0.07205474 0.07824856
0.031841375 -0.03828089 -0.0886903 0.016915591 -0.10915741 0.019318208 0.04492288 -0.097660005
-0.079079986 -0.08385412 0.080979876 0.07934917 -0.06660944 0.03486196 -0.08948213 -0.18001305
-0.014852922 0.0055804225 0.046464957 -0.041915357 0.056256335 0.042291272 0.051417638 -0.13036188
0.065144554 -0.116288565 0.06624902 -0.03080609 -0.12331111 -0.0029265746 -0.021474449 -0.07566695
-0.020889135 0.024699805 0.102801405 -0.015040387 0.08043677 0.036487956 0.031234438 0.027970044
-0.076997206 -0.08103558 -0.025283357 -0.09043672 -0.04281379 0.012665444 -0.07716755 -0.03702816
0.02249702 0.02856175 -0.051825665 0.042408504 0.036686637 0.053273283 0.035851557 -0.032085285
-0.034266148 -0.008214316 -0.07668349 0.0066693984 -0.009021405 0.04229443 0.029317252 0.06800861
-0.0038418656 -0.08882431 0.049985383 -0.06395724 -0.0014434153 -0.02656721 -0.036262415 -0.03159391
0.105067894 0.06436686 0.034171984 0.08434311 -0.1123456 -0.0008485086 0.05488855 0.051252138
-0.10470268 0.0203149 -0.08431164 -0.031606376 -0.009902592 -0.041329946 -0.10796211 -0.05000599

conv_block_2.0.bias f4 [10]
00000000: 9af8 f13c 07dc 19bd d19b 1fbc d5a1 1d3d
00000010: 7bd7 92bd a2fb 81bd 2eec f93c 47c7 43bb
00000020: 4732 303d f49f bdbd
0.029537488 -0.03756335 -0.009741739 0.038484413 -0.07170006 -0.06346823 0.030508127 -0.0029873417
0.0430167 -0.09259024

conv_block_2.2.weight f4 [10, 10, 3, 3]
00000000: e281 823d 0e21 0dbd 09fd 5bbd f31e 8fbd
00000010: de6f 4dbd 23cb a43c ce08 08bd 90ef 713d
00000020: fa27 16bd 56fc 2abd b67c bf3c 6587 1bbd
00000030: ff4e 57bd 7630 92bb 148e 353d 6aae 67bc
00000040: 9aed 3c3d 229c 4d3d d75e d73b bc01 3e3c
00000050: 1e89 eb3b b25f 4ebc 0054 833d 9e38 8c3d
00000060: 6041 3f3c f354 fcbc cfcd 8b3d e49a c8bd
00000070: d7eb 763d 3422 0f3d 5845 583d 6430 c9bc
00000080: 3416 ccbd a140 763d 3a01 80bd 2d4c f23b
00000090: e9e0 293d 8f6c a4bd 5933 e53b 0610 64bd
000000a0: f238 993d b273 89bd 1d13 833d 799d 863d
000000b0: 5335 6e3d 4659 d43d b9e5 e43a 7acc 4fbd
000000c0: 2d33 a73d 31b4 f2bb e399 00bc 9c76 c7bd
000000d0: 4758 23bd fa98 4cbd 3d0a a43d 5d78 4b3d
000000e0: 1ed6 4f3d 0fe9 493d cb34 bbbd cec1 97bd
000000f0: 4287 88bd a9ef 8cbd e5aa 5e3d eca9 b43c
00000100: 38a0 8f3d abe2 a8bc eaef d7bd 1deb 34bd
00000110: ef7f 6d3d df67 593d d162 a03c 829b 3ebd
00000120: ae54 64be 4980 1dbe 8734 0dbc 6611 07be
00000130: 1421 1ebd 8498 f1bc 1654 dcbd 84e2 0bbc
00000140: 8540 babd 6081 65bb 2c76 24bd a0c6 ccbd
00000150: 303b 8b3c 5487 f93c 9b61 59bd 056e 843d
00000160: 9aa7 c1bd fc19 d0bd 34a0 08be 4cb4 babd
00000170: 7c83 72bd a883 d2bd 3e38 c9bc 14fc 1fbe
00000180: 29a9 35bd 2234 58bd 108d babc 5df1 af3d
00000190: f5b9 1d3d 1822 b9bd 2227 a7bd 0f5d 51bd
000001a0: 54a1 9abd f1e2 d3ba 8cbf f0bc e733 3b3d
000001b0: e86c 033d 7bb6 bbbc 77b3 74ba 939d 923c
000001c0: fcbf 7fbc 5eb3 a13d 8ca8 babd 7629 3a3d
000001d0: b8f4 94bd dc66 09be 87d1 86bd 3184 3e3c
000001e0: c6e1 c63c 2edd c0bc 99ca 74bd 46b7 7fbd
000001f0: 2915 ddbd f67b 96bd e93d d1bc 0351 923d
00000200: 30ff 313d 85ef d1bd 3caf 963c f6ce 3ebd
00000210: 7826 0fbd 4bf0 d0bd 0ca3 3a3d 42e3 6dbd
00000220: 6677 b53d cd42 b73d e699 97bd 4080 d0bd
00000230: 7fa3 af3c f019 cebc 3bcf c03c 567b 92bd
00000240: a777 31bc ff4a 0ebe dafd bbbd 3f43 fcbd
00000250: 39f8 35bc 5aa7 54bd 4947 20be a11f ebbd
00000260: 3ffc bebd 09e0 e7bd 91fe 41bb a5bd 953c
00000270: 4eee f6bc 3de5 64bd ff4a 6ebc 5107 bfbd
00000280: a68b 9abd 1edb 54bc 07e4 303e cbf4 2f3d
00000290: d71d f13d 0f7e 213d 60ed 443d 92b9 f6bc
000002a0: f021 2a3e daf9 333e aa59 913d 9729 893d
000002b0: 6393 b03d 0276 563d e25c 5e3d 9483 cdbd
000002c0: b8da cabd f8b1 a5bd 120c 073d c5ba babd
000002d0: 48e2 27be 4c6f edbd 2a8c 20be c98e 9ebd
000002e0: 1be2 81bd e7a7 07be 8d19 1f3d f9a2 9bbd
000002f0: 74da 8cbd d019 0b3d 1116 6a3d 388e 85bd
00000300: ca4c debd 6337 c6bd 8201 fabc 0340 4f3c
00000310: 0cae b13c 7227 a9bd f832 dfbd 9a53 c2bd
00000320: 8bff 21bd 4770 dbbb 6b6d 49bd e146 babd
00000330: 5e5e 733b 71e3 bebd 42d7 b5bd 0edf 12be
00000340: fe1d bcbd e00e fd3c aedf 6cbc b270 98bd
00000350: 2dba 1ebd 92d1 85bb 4d17 81bd a412 1bbe
00000360: 973a aabd eff8 b7bd 9653 abbc 3937 a0bd
00000370: 86cf 77ba 4555 a7bc 5c91 ae3d 5b22 8a3d
00000380: 4de2 993d b4d4 333c a08d 3bbd f4fa be3c
00000390: ec28 a9bd c53f 17bd d083 08bd 55a8 a9bc
000003a0: f234 d6bd 525d 123d 7bd7 783c 516b ffbd
000003b0: 0be2 c5bc 0760 99bd 2541 9abd 58cf 5bbd
000003c0: dc04 713d b58c d9bc 5d5e e0bd 90de 49bd
000003d0: 3edb 223d 270a 8a3c 6285 05bc 06b2 cbbc
000003e0: d7b8 43bd f3f1 33bd e30c 83bd 0e79 383c
000003f0: cf23 d93d cbd0 183e 162d f13c 720c 993d
0.063724294 -0.03445535 -0.05370811 -0.06988325 -0.050155513 0.020116394 -0.03321152 0.059066355
-0.03665922 -0.041744553 0.023374896 -0.03797092 -0.05256557 -0.0044613434 0.04432495 -0.014140705
0.046125032 0.050197728 0.006572585 0.011597093 0.0071879765 -0.012596058 0.06412506 0.06846736
0.011673301 -0.030802226 0.06826364 -0.09795168 0.06028351 0.034944728 0.052800506 -0.024559207
-0.099651724 0.06012023 -0.06250234 0.0073943348 0.041474257 -0.080285184 0.0069946465 -0.055679344
0.074815646 -0.0671152 0.0640013 0.06573004 0.058156323 0.1036859 0.0017463482 -0.050732113
0.08164058 -0.0074067344 -0.007849189 -0.0973942 -0.03987911 -0.049950577 0.08009765 0.049675334
0.050741307 0.049294528 -0.09140929 -0.07410012 -0.066664234 -0.06881649 0.054362196 0.022053681
0.07012981 -0.020615896 -0.10543807 -0.044169534 0.057983335 0.053077575 0.01957837 -0.046535023
-0.22297928 -0.15380968 -0.0086184805 -0.1319023 -0.038605765 -0.02949167 -0.107582256 -0.008537892
-0.090943374 -0.003501974 -0.04015176 -0.09998822 0.016995996 0.030460037 -0.0530716 0.06466297
-0.094557956 -0.10161206 -0.13342363 -0.0911642 -0.059207425 -0.10279018 -0.024562951 -0.15623504
-0.044350777 -0.052784093 -0.022772342 0.08590958 0.03850742 -0.09039706 -0.08161761 -0.05111414
-0.07550302 -0.0016165656 -0.029388212 0.045703795 0.032086283 -0.022914162 -0.00093346037 0.017897403
-0.0156097375 0.0789554 -0.09114179 0.045449696 -0.07273239 -0.13418144 -0.06582933 0.011628197
0.024277579 -0.023542967 -0.059763525 -0.062430643 -0.107950516 -0.073478624 -0.025542216 0.07144358
0.043456256 -0.10250763 0.018394105 -0.046584092 -0.034948796 -0.10202082 0.04556565 -0.058078058
0.08860664 0.08948288 -0.07402401 -0.10180712 0.021440266 -0.025158852 0.023536315 -0.07152431
-0.01083175 -0.13895796 -0.09179278 -0.12317514 -0.011106544 -0.05191741 -0.15652193 -0.11480642
-0.09325456 -0.11322028 -0.0029601196 0.018278906 -0.03014293 -0.05588268 -0.014544248 -0.09327567
-0.07546167 -0.012991695 0.17274486 0.042958062 0.117732696 0.03942686 0.04807794 -0.030117784
0.16614509 0.1757578 0.0709718 0.06697386 0.08621862 0.052358635 0.0542878 -0.10034862
-0.099049985 -0.080905855 0.032970496 -0.09117655 -0.16394913 -0.11593494 -0.15678468 -0.07742078
-0.06341954 -0.13247643 0.038842726 -0.07599444 -0.06877604 0.033960164 0.05714995 -0.06521267
-0.1085449 -0.09678533 -0.030518297 0.012649539 0.021689437 -0.08259477 -0.108983934 -0.09488602
-0.039550345 -0.006696734 -0.049176615 -0.0909555 0.0037135105 -0.09320725 -0.08878948 -0.14342901
-0.09185408 0.030890882 -0.014457626 -0.0744337 -0.03875177 -0.0040838206 -0.063032724 -0.1514383
-0.083119564 -0.08983027 -0.02091388 -0.07823033 -0.00094532256 -0.020426402 0.08523819 0.06744834
0.075138666 0.010976005 -0.04578936 0.023313023 -0.08259758 -0.03692605 -0.03332883 -0.02071015
-0.10459317 0.03573353 0.015188093 -0.12471641 -0.024155637 -0.07489019 -0.075319566 -0.053664535
0.058842525 -0.026556352 -0.10955498 -0.049284518 0.039759867 0.016850544 -0.008149477 -0.024865162
-0.0477837 -0.043931913 -0.06398942 0.01125933 0.10602533 0.14923398 0.029440444 0.07473077

conv_block_2.2.bias f4 [10]
00000000: 7212 ae3d 4d8e bc3d ed1d 383d c1a4 c4bd
00000010: b672 213c d435 66bd 532e 54bc 266f 8e3d
00000020: 757d 21bd 0b9b 9abd
0.08499612 0.09206829 0.044950414 -0.09601737 0.009854009 -0.05620368 -0.012950498 0.06954794
-0.039426286 -0.07549103

classifier.1.weight f4 [3, 1690]
00000000: 19fb 6c3c 0c58 653d 5346 4d3d 100f 823d
00000010: 8e6d 383d 1e91 3c3c fc84 1b3d 3894 303d
00000020: 7e5f 393d 0553 3a3d 3600 ae3c 1be7 fd3c
00000030: cdc9 843d 89b5 c73c 290b 233d 998e 003d
00000040: 5a45 2b3d b2b6 e33c a767 e33a 7a92 3bba
00000050: 6c02 cf3c 2976 8d3c 2aa0 113d 8cf7 903c
00000060: 17cc 503d 2218 fb3c 009e 9e3c 9f7a c43c
00000070: fc85 f93b 93ab 793c f8df b33c ba4e ff3c
00000080: aae3 b0ba 864a de3b b8d3 f9bb 5ec4 163d
00000090: c587 2c3d 1469 ce3c e6fa f53b 32c9 f2bb
000000a0: 5051 ed3c e6bb f33c 1c65 223d 73cb 973c
000000b0: e36e 0d3d c2a6 493d 2640 803c 03d3 f53b
000000c0: 0a6e 35bb 8cbc 133d 0b7d 1e3d 46f9 0d3d
000000d0: d80a 4f3a fccf f13c 4cf5 cbbb 4375 9339
000000e0: 45aa 133d 2a9b 3a3b 20c7 533d ffa1 373d
000000f0: 9262 4b3c 6182 133d 39a2 a13c e33f 023d
00000100: 1de6 1c3c eea5 59bc 363f 453c 04b6 f53c
00000110: 1b77 913c 1ae6 8d3c 6ae3 003d 7b2d 093d
00000120: b853 763c a2f2 8b3b 544f ddba 49ec 9b3c
00000130: ed0a 143d 96f7 2d3d f598 4d3c c5f2 da3c
00000140: c1d2 063d 234f 7738 b869 ee3b 930a 113d
00000150: ce3b 003d c24c a83c e682 93bb 6207 0a3d
00000160: c7d8 283b f709 073d 270e 053d 5ee4 d03c
00000170: 685d 8ebc 7417 88ba 8b80 e53c c2a5 263d
00000180: 78a4 403c 77a9 253d 45e3 8e3c 7d37 423c
00000190: 1514 a73c 59f6 e03c f96b a93c 890c 2f3d
000001a0: cc0a 163c b84e 523a 337b e1bb 5062 5c3d
000001b0: c407 ed3c 2e75 863b 30f1 033d b9e0 913c
000001c0: 0a6e fa3c 788a bb3c 58e5 303d fec2 d03c
000001d0: 06fd d73c 8bf5 313c 8e54 d03c 9c61 523d
000001e0: 2625 ec3c ef15 0f3d 7a6b 2f3d 09e7 b13c
000001f0: 3e60 743c a8a1 9b3b 3259 0d3d 41f8 ba3c
00000200: 2533 253d 9db3 0a3d 8508 82ba f6c9 2dbb
00000210: 2a33 723c 0098 9f3c d988 063d f3c2 043d
00000220: e785 683d d486 483c 217d d83c 140a 99ba
00000230: 5fe4 ea3c 4617 183d ff56 2a3c 1bf9 2f3d
00000240: 82e2 9b3b 32b0 3d3d 9042 003d 417a 563d
00000250: 282c 7c3d 25f4 0f3d c004 003d 682b f43c
00000260: a1c9 03bb d233 553d 661f bf3c 1c42 813d
00000270: 2981 893b 1411 9f3b c0c3 0b3d e93a 5d3c
00000280: 5681 733d 1c0e 673d 70d8 853d d15d 413c
00000290: c1e6 b63c cefa 043d 249f 5a3d 6caa cf3c
000002a0: fdb9 293d a8d1 3bbd 3949 85bd 0250 a1bd
000002b0: a7bf 00bd a490 b8bc 7e4d d43b d108 f43c
000002c0: 560d 313d 7608 853b fe1e 04bc 8d75 a9bb
000002d0: 4db8 5dbd 697d 423a 84e7 16bd 551b c43c
000002e0: 285e babc 6b3b a4bc d5bd 0bbd 0ad2 3cbd
000002f0: 6bb5 813d 5083 723d 0d08 5ebb 3b46 6fbb
00000300: 5908 633c bf21 be3c 20b2 503c f04b b73c
00000310: 042f bf3c f0ef 8a3c b113 bfbc 5d13 66bd
00000320: badb 4ebd 4700 f13c 78aa 053d aece 60bb
00000330: 28a9 6f3c e382 6a3c bb65 343d a3e3 dd3d
00000340: d27c babc 873b babc 3ed8 4abc 0949 eab8
00000350: 7554 95bc 849f f0bd 16ef 9bbd 944e eebc
00000360: f74f 53bd 0dbb a1bc ab0d 8cbd 6074 ffba
00000370: c588 913d e51c c73b db1e 86bc 040c ad3c
00000380: 28f0 68bc 7578 f7bc 9f04 d4bd ae94 c5bd
00000390: 0a28 68bd 0fb4 f2bc f19b 8bbd c13e 82bd
000003a0: 0013 00bd f726 003d fce0 5c3d 39d1 c5bb
000003b0: 796b 25bd f551 d6bc 55ef f8bc 3515 a1bd
000003c0: c9f3 56bc 632d f63b b009 d039 3224 13bd
000003d0: c5da 89bd d725 04bc fe68 5f3c 498b 2fbc
000003e0: 9342 683c 0cd8 d1bb f16d 3fbc 656b 19bd
000003f0: b166 bebc 1e20 59bd 6119 e2bc a21a ddbc
0.014464163 0.05599217 0.050115895 0.06350529 0.045026354 0.011509208 0.03796862 0.043110102
0.045257084 0.04548933 0.021240335 0.030993989 0.06483803 0.024378555 0.039805565 0.03138599
0.041814186 0.027797077 0.0017349616 -0.00071553106 0.02526971 0.017268257 0.035553135 0.017696165
0.050975885 0.030651156 0.01936245 0.023984252 0.007614849 0.01523866 0.021957383 0.03116547
-0.0013495584 0.006783786 -0.007624116 0.036808364 0.042121667 0.02519659 0.007506716 -0.0074092383
0.028969437 0.029752683 0.039647207 0.01852963 0.034529578 0.0492313 0.015655588 0.007501961
-0.0027683997 0.036068484 0.03869347 0.034661554 0.0007898039 0.02951812 -0.00622431 0.00028125392
0.036051054 0.0028473833 0.051703572 0.044832226 0.012413638 0.03601301 0.019730674 0.03179921
0.009576348 -0.01328419 0.012038996 0.029994018 0.01775699 0.017321635 0.03146688 0.03349064
0.015034609 0.0042708674 -0.0016884604 0.019033568 0.036143232 0.042472444 0.012548675 0.02672709
0.032915834 5.896309e-05 0.0072757863 0.035410475 0.031307034 0.020544413 -0.0045016883 0.033698447
0.0025763975 0.032968488 0.0324842 0.025499519 -0.017378524 -0.0010382966 0.028015396 0.040685423
0.011757962 0.040444817 0.017442355 0.01185405 0.020395318 0.027461218 0.020681368 0.042736564
0.009157848 0.0008022594 -0.0068811416 0.053804696 0.028934367 0.0041033244 0.032212436 0.017807351
0.030570049 0.022893175 0.04318747 0.025483605 0.026365768 0.010861765 0.025430944 0.05136262
0.028826308 0.034933027 0.042827107 0.021716611 0.014915524 0.0047494955 0.03450889 0.022823455
0.04033198 0.0338627 -0.0009920752 -0.0026518083 0.014782706 0.019481659 0.03284535 0.03241248
0.056768324 0.012239177 0.026426854 -0.0011675977 0.028673349 0.03713157 0.010396718 0.042962175
0.0047572264 0.04631061 0.03131348 0.052362684 0.06156555 0.035144944 0.03125453 0.029805854
-0.0020109194 0.052051373 0.023330402 0.063114375 0.0041963053 0.004854331 0.03412223 0.013502815
0.059449516 0.05640994 0.06535423 0.011802153 0.022326829 0.03246575 0.053374425 0.025349818
0.041437138 -0.04585424 -0.06508107 -0.078765884 -0.031432774 -0.022529908 0.0064789644 0.02978936
0.04322561 0.0040598465 -0.00806403 -0.005171484 -0.05413084 0.00074192 -0.036841884 0.023938814
-0.022749975 -0.020047864 -0.034116585 -0.046098746 0.06333431 0.05920726 -0.003387931 -0.0036510366
0.013856971 0.02320945 0.012737781 0.022375077 0.023337848 0.016960114 -0.02332482 -0.05617081
-0.050502516 0.029419078 0.032633275 -0.0034302878 0.014627732 0.014313432 0.04404233 0.10834434
-0.022764597 -0.022733463 -0.012380658 -0.00011171593 -0.018228749 -0.11749175 -0.076139614 -0.029090203
-0.051589932 -0.019742513 -0.068385445 -0.0019489639 0.07106165 0.0060764425 -0.016372135 0.021123894
-0.014217414 -0.030208806 -0.10352444 -0.09647499 -0.05667881 -0.029626874 -0.06816853 -0.063596256
-0.03126812 0.03128716 0.0539255 -0.006036904 -0.040385697 -0.026162127 -0.03038756 -0.07865373
-0.013119646 0.0075127347 0.0003968007 -0.03592319 -0.0673118 -0.008065662 0.013635872 -0.0107143605
0.014176029 -0.0064039286 -0.011683927 -0.037455935 -0.023242326 -0.053009145 -0.027599992 -0.026990239

classifier.1.bias f4 [3]
00000000: 039c a53d 3219 6cbd 5757 46bd
0.080863975 -0.057641216 -0.048423138
